…
    "model6.compile(loss = keras.losses.categorical_crossentropy,\n",
    "             optimizer = keras.optimizers.Adadelta(),\n",
    "             metrics=['accuracy'])\n"
   ]
  },
  {
   "cell_type": "code",
   "execution_count": 63,
   "metadata": {
    "scrolled": false
   },
   "outputs": [
    {
     "name": "stdout",
     "output_type": "stream",
     "text": [
      "_________________________________________________________________\n",
      "Layer (type)                 Output Shape              Param #   \n",
      "=================================================================\n",
      "conv2d_53 (Conv2D)           (None, 100, 100, 128)     28928     \n",
      "_________________________________________________________________\n",
      "batch_normalization_45 (Batc (None, 100, 100, 128)     512       \n",
      "_________________________________________________________________\n",
      "max_pooling2d_38 (MaxPooling (None, 15, 15, 128)       0         \n",
      "_________________________________________________________________\n",
      "conv2d_54 (Conv2D)           (None, 15, 15, 256)       819456    \n",
      "_________________________________________________________________\n",
      "batch_normalization_46 (Batc (None, 15, 15, 256)       1024      \n",
      "_________________________________________________________________\n",
      "max_pooling2d_39 (MaxPooling (None, 8, 8, 256)         0         \n",
      "_________________________________________________________________\n",
      "flatten_19 (Flatten)         (None, 16384)             0         \n",
      "_________________________________________________________________\n",
      "dense_39 (Dense)             (None, 384)               6291840   \n",
      "_________________________________________________________________\n",
      "dense_40 (Dense)             (None, 192)               73920     \n",
      "_________________________________________________________________\n",
      "dense_41 (Dense)             (None, 31)                5983      \n",
      "=================================================================\n",
      "Total params: 7,221,663\n",
      "Trainable params: 7,220,895\n",
      "Non-trainable params: 768\n",
      "_________________________________________________________________\n"
     ]
    }
   ],
   "source": [
    "model = model6\n",
    "model.summary()"
   ]
  },
  {
   "cell_type": "code",
   "execution_count": null,
…
